backend: tensorflow
class_name: Sequential
config:
- class_name: Conv2D
  config:
    activation: relu
    activity_regularizer: null
    batch_input_shape: !!python/tuple [null, 28, 28, 1]
    bias_constraint: null
    bias_initializer:
      class_name: Zeros
      config: {dtype: float32}
    bias_regularizer: null
    data_format: channels_last
    dilation_rate: &id001 !!python/tuple [1, 1]
    dtype: float32
    filters: 32
    kernel_constraint: null
    kernel_initializer:
      class_name: VarianceScaling
      config: {distribution: uniform, dtype: float32, mode: fan_avg, scale: 1.0, seed: null}
    kernel_regularizer: null
    kernel_size: !!python/tuple [3, 3]
    name: conv2d_12
    padding: valid
    strides: &id002 !!python/tuple [1, 1]
    trainable: true
    use_bias: true
- class_name: MaxPooling2D
  config:
    data_format: channels_last
    dtype: float32
    name: max_pooling2d_11
    padding: valid
    pool_size: !!python/tuple [2, 2]
    strides: !!python/tuple [2, 2]
    trainable: true
- class_name: Dropout
  config: {dtype: float32, name: dropout_2, noise_shape: null, rate: 0.2, seed: null,
    trainable: true}
- class_name: Conv2D
  config:
    activation: relu
    activity_regularizer: null
    bias_constraint: null
    bias_initializer:
      class_name: Zeros
      config: {dtype: float32}
    bias_regularizer: null
    data_format: channels_last
    dilation_rate: *id001
    dtype: float32
    filters: 64
    kernel_constraint: null
    kernel_initializer:
      class_name: VarianceScaling
      config: {distribution: uniform, dtype: float32, mode: fan_avg, scale: 1.0, seed: null}
    kernel_regularizer: null
    kernel_size: !!python/tuple [3, 3]
    name: conv2d_13
    padding: valid
    strides: *id002
    trainable: true
    use_bias: true
- class_name: MaxPooling2D
  config:
    data_format: channels_last
    dtype: float32
    name: max_pooling2d_12
    padding: valid
    pool_size: !!python/tuple [2, 2]
    strides: !!python/tuple [2, 2]
    trainable: true
- class_name: Dropout
  config: {dtype: float32, name: dropout_3, noise_shape: null, rate: 0.2, seed: null,
    trainable: true}
- class_name: Flatten
  config: {data_format: channels_last, dtype: float32, name: flatten_3, trainable: true}
- class_name: Dense
  config:
    activation: relu
    activity_regularizer: null
    bias_constraint: null
    bias_initializer:
      class_name: Zeros
      config: {dtype: float32}
    bias_regularizer: null
    dtype: float32
    kernel_constraint: null
    kernel_initializer:
      class_name: VarianceScaling
      config: {distribution: uniform, dtype: float32, mode: fan_avg, scale: 1.0, seed: null}
    kernel_regularizer: null
    name: dense_6
    trainable: true
    units: 128
    use_bias: true
- class_name: Dense
  config:
    activation: softmax
    activity_regularizer: null
    bias_constraint: null
    bias_initializer:
      class_name: Zeros
      config: {dtype: float32}
    bias_regularizer: null
    dtype: float32
    kernel_constraint: null
    kernel_initializer:
      class_name: VarianceScaling
      config: {distribution: uniform, dtype: float32, mode: fan_avg, scale: 1.0, seed: null}
    kernel_regularizer: null
    name: dense_7
    trainable: true
    units: 10
    use_bias: true
keras_version: 2.1.6-tf
